discriminator_final.pth (torch, 556073 bytes, 9 tensors)

model.0.weight f4 [64, 4, 4, 4]
0	0x3b4bff06	0.0031127348
1	0xbc2d995c	-0.010595646
2	0xbd9831ac	-0.07431349
3	0x3d93dce5	0.07219867
4	0xbacef891	-0.0015790631
5	0xbcb8a4d2	-0.02253953
6	0xbd0720e0	-0.032990336
7	0x3cdb87e1	0.02679819
8	0xbd24fab1	-0.04027814
9	0xbdbe03b9	-0.09278054
10	0xbde3ac4d	-0.11116848
11	0x3c2c0003	0.01049805
12	0x3dac2d34	0.08407059
13	0x3cbf93c0	0.023385882
14	0x3d2c094b	0.04200105
15	0x3e1842cc	0.14869231
16	0x3d1d895f	0.038461085
17	0x3c743d3a	0.014907176
18	0x3bc375bf	0.005964964
19	0x3c8506d9	0.016238617
20	0x3d155063	0.036453616
21	0x3dd64d1a	0.10463925
22	0x3da0a38d	0.07843695
23	0x3cd8e18f	0.026474742
24	0x3ceb71a2	0.028740708
25	0x3e03798b	0.12839334
26	0x3da03066	0.07821731
27	0x3b74f80e	0.0037379297
28	0x3d090e8b	0.033461135
29	0x3d563a9e	0.052301995
30	0x3ca2af4b	0.019858977
31	0x3ce70f81	0.028205635
32	0xbd11b524	-0.03557314
33	0xbd658af4	-0.05604072
34	0xbcd61513	-0.026133096
35	0x3bcba344	0.006214531
36	0xbd8f89e1	-0.0700872
37	0xbdfbd682	-0.122967735
38	0xbe020887	-0.12698565
39	0xbcb364ce	-0.021898653
40	0xbdc53fef	-0.09631335
41	0xbe247388	-0.16059697
42	0xbe1b788e	-0.15182707
43	0xbd7d9954	-0.061913803
44	0xbd454076	-0.048157178
45	0xbd9ac7d5	-0.07557646
46	0xbdaf8d55	-0.08571879
47	0xbc2c0382	-0.010498883
48	0xbd2cb40d	-0.042163897
49	0xbdbe33ad	-0.092872
50	0x3c26741f	0.010159521
51	0x3d14f094	0.036362246
52	0xbc11476f	-0.008867129
53	0xbd799a04	-0.060937896
54	0xbdff6c79	-0.124718614
55	0xbd0d8fd2	-0.034560986
56	0xbd4585d3	-0.048223328
57	0xbe0157f0	-0.12631202
58	0xbdd227bd	-0.10261486
59	0xbd093ef5	-0.033507306
60	0xba661d7a	-0.0008778196
61	0xbd816975	-0.063189425
62	0xbd0088fc	-0.03138064
63	0x3c60dd44	0.013724629
64	0x3d1307f7	0.035896268
65	0x3d81d577	0.06339543
66	0xb97095bb	-0.00022943963
67	0xbc3de9ea	-0.011591414
68	0x3d81a571	0.063303836
69	0x3d78dee9	0.06075946
70	0x3dd34d8a	0.10317524
71	0x3d6ba417	0.057529535
72	0x3d4613a6	0.048358582
73	0x3d974781	0.07386685
74	0x3db5ce2b	0.08877214
75	0x3caaf7e7	0.020870162
76	0xbc7ed523	-0.015553745
77	0x3d600270	0.054689825
78	0x3cc50dd1	0.02405444
79	0xbd4c8433	-0.049930762
80	0x3b27b28b	0.0025588598
81	0xbbf4bd49	-0.0074688536
82	0xbbad42ab	-0.0052874885
83	0x3bc39a0f	0.005969293
84	0xbced49ac	-0.028965794
85	0xbd0a2578	-0.03372714
86	0xbcee79bc	-0.029110782
87	0xbc4b972e	-0.012426181
88	0xbc7213e9	-0.014775255
89	0xbd099305	-0.033587474
90	0xbcdcff3c	-0.026977174
91	0x3aff1f87	0.0019464352
92	0xb76a6d1b	-1.397289e-05
93	0xbc7cbfd4	-0.015426595
94	0xbc14b248	-0.009075709
95	0x3c1e30f1	0.009655223
96	0xbd039117	-0.03212079
97	0xbd63ea8f	-0.055643614
98	0xbd32abf9	-0.043621037
99	0xbcbd753a	-0.023127187
100	0xbcff529d	-0.031167323
101	0xbd3e1113	-0.046403002
102	0xbd640e5e	-0.055677764
103	0xbd5c7b4a	-0.053828515
104	0xbbe19389	-0.0068840426
105	0xbcd6f13a	-0.026238073
106	0xbcc1c77e	-0.023654696
107	0x3bf5ab19	0.007497203
108	0x3c9299e3	0.017895645
109	0x38917d14	6.9374364e-05
110	0xbcf8cc69	-0.030370908
111	0x3b1c080b	0.0023808505
112	0x3c9b941c	0.018991522
113	0xbd13a862	-0.036049254
114	0xbcacf965	-0.021115014
115	0x3d058ded	0.032606054
116	0xbd59545e	-0.053058974
117	0xbd945c1c	-0.07244131
118	0xbdc418c7	-0.095750384
119	0xbd1efad9	-0.038813446
120	0xbc8265ae	-0.015917625
121	0xbd8df70f	-0.06931888
122	0xbd4ce2dc	-0.050021037
123	0xbcced7ce	-0.025249388
124	0x3cd3cd9a	0.025854874
125	0xbc9962fc	-0.018723957
126	0xbc7b5911	-0.015341059
127	0xbadb5633	-0.0016734063
128	0x3cd1d137	0.025612457
129	0x3d503b79	0.050837968
130	0x3d1a5a1d	0.037683595
131	0x3d21f98f	0.03954464
132	0xbcf277ac	-0.02959808
133	0xbcb49b99	-0.022046851
134	0x3cbe018e	0.0231941
135	0x3d15d835	0.036583144
136	0xbcf1a3cc	-0.02949705
137	0x3c2a6a5e	0.0104013365
138	0x3cea04f2	0.028566811
139	0x3c899270	0.01679346
140	0x3c5e4c19	0.013567948
141	0x3c674c01	0.014117242
142	0x3d063a10	0.032770216
143	0x3b9f6307	0.0048641
144	0x3d7ecd17	0.062207308
145	0x3d64f19e	0.055894487
146	0x3d186ef0	0.037215173
147	0x3d553d2e	0.0520603
148	0x3d1e227b	0.038607102
149	0x3d8c5d65	0.06853751
150	0x3d70ecf6	0.058819734
151	0x3d46fc7d	0.048580635
152	0x3d81c0f3	0.0633563
153	0x3d3d9fd4	0.046295002
154	0x3d57bcba	0.052670218
155	0x3d68edc9	0.056867395
156	0x3dad9074	0.08474818
157	0x3db167fc	0.086624116
158	0x3d466377	0.0484347
159	0x3d87cf4e	0.06631337
160	0xbd1090c1	-0.035294298
161	0xbd8cdcb3	-0.068780325
162	0xbd5ce804	-0.053932205
163	0xbce50877	-0.027958138
164	0xbd960301	-0.07324792
165	0xbdd4eb0a	-0.10396393
166	0xbd9586a6	-0.07301073
167	0xbd696841	-0.05698419
168	0xbda77a42	-0.08177616
169	0xbd898b89	-0.06716067
170	0xbd889ef0	-0.0667094
171	0xbd7f62b4	-0.06234999
172	0xbd817320	-0.063207865
173	0xbd805572	-0.062662974
174	0xbd9b8ec8	-0.07595593
175	0xbd89655c	-0.06708786
176	0xbcd3aee0	-0.025840223
177	0xbc84d155	-0.016213099
178	0x389964dd	7.314396e-05
179	0xbd444064	-0.04791297
180	0xbc83c0ab	-0.016083082
181	0xbc7daf40	-0.015483677
182	0x3ca3f8c6	0.020016085
183	0xbcc91442	-0.024545792
184	0xbd048126	-0.032349728
185	0x3ba2c944	0.0049678404
186	0xbb8823d6	-0.0041546626
187	0xbd01b427	-0.031665947
188	0xbdac9f8b	-0.08428868
189	0xbd89dca5	-0.06731538
190	0xbd836f41	-0.064177044
191	0xbdb3c021	-0.0877688
192	0xbc1310b0	-0.008976147
193	0x3cab2f42	0.020896558
194	0xbc9f1d47	-0.01942314
195	0xbb1808dc	-0.002319864
196	0x3b31b106	0.002711357
197	0xbb839693	-0.0040157526
198	0xbbffb473	-0.0078034936
199	0x3bfe619b	0.0077631003
200	0xbca0f5be	-0.019648429
201	0x3d645bbc	0.055751547
202	0xbc8b46ea	-0.017001588
203	0xbcf909f6	-0.030400258
204	0x3b6cbacb	0.003612208
205	0xbc047a49	-0.008085796
206	0xbb1c7477	-0.002387313
207	0x3c3189f2	0.010836111
208	0x3d9532df	0.072850935
209	0x3c85763d	0.016291732
210	0x3cbce866	0.023060035
211	0xbd4a8e40	-0.049452066
212	0xbd306cee	-0.043072633
213	0xbcb2cabc	-0.021825187
214	0xbd9de2b3	-0.07709255
215	0xbd7a9f8d	-0.061187316
216	0x3d9270d0	0.071504235
217	0x3dda5372	0.10660447
218	0xbcc3b312	-0.023889098
219	0xbc4df62c	-0.012570899
220	0x3c2f63ae	0.010704918
221	0x3c7ffbfa	0.015624041
222	0xbd2cdf11	-0.04220492
223	0xbd22b2b9	-0.039721224
224	0xbd35d188	-0.044389278
225	0xbcb11c26	-0.021619868
226	0xbcd62758	-0.026141807
227	0xbc2524cb	-0.010079573
228	0xbd56049d	-0.052250493
229	0xbcb48c06	-0.022039425
230	0xbd21e081	-0.039520744
231	0x3c0af026	0.008480107
232	0x3cf908b6	0.030399662
233	0xbd26d35c	-0.04072891
234	0x3d0f75cf	0.03502446
235	0xbd088e2f	-0.03333872
236	0x3d4f60a4	0.050629273
237	0x3d4895c0	0.048970938
238	0xbcb7bba4	-0.022428341
239	0x3e0db7c9	0.1383964
240	0x3d068f23	0.03285135
241	0xbcce6855	-0.025196234
242	0xbc97379f	-0.01845914
243	0x3c95bfd3	0.018279945
244	0xbbb40f86	-0.0054950146
245	0x3d29aa38	0.0414221
246	0x3d599b5b	0.053126674
247	0x3d90850b	0.07056626
248	0xbca85d3b	-0.020552268
249	0x3bde8374	0.006790573
250	0x3d1bbd6b	0.03802244
251	0x3a281d63	0.00064130704
252	0xbcc294e0	-0.02375263
253	0x39d2b443	0.00040188627
254	0x3d3cc337	0.04608461
255	0xbd5a21cc	-0.053254887

model.0.bias f4 [64]
0	0xbcb1d2fa	-0.021707047
1	0xbe50ec04	-0.20402533
2	0xbdca5759	-0.098799415
3	0xbe134e53	-0.14385347
4	0xbe5f8787	-0.21829043
5	0xbd02e4da	-0.03195653
6	0xbc0aafdd	-0.008464781
7	0xbe1a2f6f	-0.15057157
8	0xbd4afead	-0.049559284
9	0x3cb28065	0.021789739
10	0xbc43466f	-0.011918648
11	0xbe108e92	-0.14116886
12	0xbea16561	-0.31522658
13	0xbe4e4121	-0.20142032
14	0xbcd6a66f	-0.026202409
15	0xbe9acd96	-0.30234975
16	0x3d2fc4a1	0.04291213
17	0xbbe70d40	-0.00705114
18	0xbe746c1e	-0.23869368
19	0x3c244f12	0.010028617
20	0xbe78d60c	-0.24300402
21	0xbed3f563	-0.41398153
22	0xbeab9f11	-0.33519796
23	0xbe7a1297	-0.24421154
24	0xbe6f5a09	-0.2337419
25	0xbe766729	-0.2406279
26	0x3cb5474e	0.022128727
27	0x3da6e707	0.08149534
28	0x3e550575	0.20802863
29	0xbc04bf13	-0.008102196
30	0xbdd089aa	-0.10182507
31	0xbe0b273f	-0.1358919
32	0xbda9ae24	-0.08285168
33	0x3ec8908b	0.39172778
34	0x3c88a5fd	0.016680712
35	0xbe173dd1	-0.14769675
36	0xbdd26ae5	-0.10274295
37	0xbe8f15ff	-0.2794647
38	0xbeac2c33	-0.3362747
39	0xbe8e4d90	-0.2779355
40	0x3de91897	0.11381643
41	0xbe387399	-0.18012847
42	0xbe42be95	-0.19018014
43	0xbe07b01b	-0.13250773
44	0x3c0278e8	0.007963397
45	0x3d1eae8e	0.038740687
46	0xbe55df5f	-0.2088599
47	0xbe702e66	-0.234552
48	0xbe382e47	-0.17986403
49	0xbe6181be	-0.22022149
50	0x3d8fc6ca	0.07020338
51	0xbe9f5b66	-0.3112442
52	0xbe71560b	-0.23567979
53	0xbd4394dc	-0.047749385
54	0xbe077e34	-0.13231736
55	0x3e9487ff	0.29010007
56	0xbd33fe4d	-0.043943692
57	0x3c678233	0.014130163
58	0xbdca43a9	-0.098761864
59	0xbe183a1d	-0.14865918
60	0xbea52d7e	-0.3226127
61	0x3d127be6	0.03576269
62	0xbd65e6a4	-0.05612816
63	0x3d91b049	0.07113702

model.2.weight f4 [128, 64, 4, 4]
0	0xbdd68396	-0.10474317
1	0xbdce2f3d	-0.10067604
2	0xbdd5eefd	-0.10445974
3	0xbdb2f5b5	-0.08738271
4	0xbd7458a0	-0.059654832
5	0xbdcfd2f5	-0.10147659
6	0xbdfb22a0	-0.122624636
7	0xbdc878e1	-0.09788681
8	0xbd99b2ef	-0.07504832
9	0xbdac35c6	-0.08408694
10	0xbdfb27d7	-0.12263458
11	0xbdc85ace	-0.097829446
12	0xbd3eb106	-0.04655554
13	0xbcec8c8e	-0.028875615
14	0xbdbedbb8	-0.09319252
15	0xbd59bc12	-0.053157873
16	0x3dcb1228	0.099155724
17	0x3d1b1890	0.03786522
18	0x3d697d85	0.05700447
19	0x3d6312fe	0.055438034
20	0x3d9cda0c	0.07658777
21	0x3dd0565c	0.10172722
22	0x3d84d3f9	0.06485743
23	0x3daa626b	0.08319553
24	0x3dc79aad	0.09746299
25	0x3dd35b78	0.10320181
26	0x3db52ad8	0.088460624
27	0x3db58d62	0.08864857
28	0x3d949864	0.07255629
29	0x3d7bc4c8	0.061466962
30	0x3db4f381	0.08835507
31	0x3d84a28b	0.06476315
32	0x3b90cd25	0.0044189864
33	0xbbedd11e	-0.0072575947
34	0x3c68c433	0.014206934
35	0xbc0b53a3	-0.008503827
36	0xbbad7428	-0.005293388
37	0x3c38723f	0.011257707
38	0xbc549b15	-0.012976428
39	0x3c889f5d	0.016677553
40	0x3b99d06a	0.0046940343
41	0x3ccd2b56	0.025045078
42	0x3d08ae0d	0.033369113
43	0x3cd78d11	0.026312383
44	0x3cfc42be	0.030793544
45	0x3c667846	0.014066761
46	0x3d493b3f	0.049128767
47	0x3d1378de	0.03600394
48	0xbd27e227	-0.04098716
49	0xbd170745	-0.036872167
50	0xbdc63491	-0.09677995
51	0xbd07f27d	-0.03319024
52	0xbcba7052	-0.022758637
53	0xbcb3f222	-0.021966044
54	0xbb82d07b	-0.003992138
55	0xba977e95	-0.001155811
56	0xbcff3653	-0.031153833
57	0xbd32c3b0	-0.043643653
58	0xbd0dfb22	-0.034663327
59	0xbd0ca935	-0.034341056
60	0xbd2ad1f4	-0.041704133
61	0xbdb6c042	-0.08923389
62	0xbd4ed11b	-0.050492387
63	0xbd609de0	-0.05483806
64	0xbd7db144	-0.06193663
65	0xbca558ad	-0.020183885
66	0xbc978155	-0.018494288
67	0xbd848010	-0.064697385
68	0xbc48a496	-0.012246272
69	0x3cc34282	0.023835424
70	0xbc84871e	-0.01617771
71	0xbd082116	-0.03323468
72	0xbd55d239	-0.052202437
73	0xbcc60334	-0.02417145
74	0xbd024029	-0.03179947
75	0xbd019888	-0.031639606
76	0xbd264b62	-0.040599234
77	0xbd25c421	-0.040470246
78	0xbd4f4484	-0.05060245
79	0xbda60f73	-0.081084155
80	0xbd3c0381	-0.04590178
81	0xbccb019f	-0.024781046
82	0xbcf4e5ad	-0.029894674
83	0xbc8d4716	-0.01724581
84	0xbd4f4bf5	-0.050609548
85	0xbcf9a5d3	-0.030474579
86	0xbd4c6bba	-0.049907424
87	0xbc99ba85	-0.018765697
88	0xbda4049d	-0.080086924
89	0xbce51ebf	-0.027968762
90	0xbd442b39	-0.047892783
91	0xbc8ca286	-0.017167341
92	0xbcb59f3f	-0.022170661
93	0xbaaddcae	-0.001326462
94	0x3cac5a4d	0.021039153
95	0xbc531b02	-0.012884857
96	0xbc48d4bd	-0.012257752
97	0xbd36041b	-0.04443751
98	0xbdaff22b	-0.08591112
99	0xbd8025ac	-0.06257185
100	0x3dca118f	0.0986663
101	0x3b26d320	0.002545543
102	0x3d2ecd43	0.04267622
103	0xbce19a59	-0.027539419
104	0x3da5bde2	0.08092858
105	0x3d575d56	0.052579246
106	0x3d651513	0.0559283
107	0x3d834a27	0.06410628
108	0xbd68cd1b	-0.05683623
109	0xbde63648	-0.11240822
110	0xbdcb89d0	-0.09938395
111	0xbde618b2	-0.11235179
112	0xbd6b767b	-0.05748604
113	0xbd8d017f	-0.06885051
114	0xbd6db84a	-0.05803708
115	0xbd46a11f	-0.0484935
116	0x3c7dc81b	0.015489603
117	0xbc1c9fc5	-0.009559576
118	0xbcabf206	-0.02098943
119	0xba8ad6fd	-0.0010592636
120	0xbdabd4c0	-0.08390188
121	0xbd4438e6	-0.047905825
122	0xbd262276	-0.04056021
123	0xbdb01e44	-0.08599523
124	0x3d4e0c65	0.05030479
125	0x3c7b4270	0.015335664
126	0x3d053b44	0.032527223
127	0x3d2b217e	0.041779988
128	0x3d947c99	0.072503276
129	0x3caf095c	0.021366768
130	0x3d9ed3f2	0.07755269
131	0x3c81c9df	0.01584333
132	0x3dd64e35	0.104641356
133	0x3d717d85	0.058957595
134	0x3dcf4c25	0.10121945
135	0x3d833755	0.06407038
136	0x3dbfc80e	0.09364329
137	0x3d3493a7	0.044086125
138	0x3dd1e739	0.1024918
139	0x3d324ce1	0.04353035
140	0x3db3b16f	0.08774077
141	0x3d9563bd	0.07294414
142	0x3dae59b0	0.085132
143	0x3d0d7763	0.034537684
144	0x3c343784	0.010999564
145	0xbcd7e63e	-0.026354905
146	0x3ba60a9e	0.0050671836
147	0x3a88ec61	0.0010446423
148	0x3c491ca1	0.012274892
149	0xbc38f5bd	-0.011289057
150	0x3ca6eb80	0.020375967
151	0x3cacae24	0.02107913
152	0x3d9e8afb	0.07741352
153	0x3d4f5fd1	0.050628487
154	0x3db4c2de	0.088262305
155	0x3da1f4be	0.07908009
156	0x3d3897c4	0.04506661
157	0x3cf932c8	0.030419722
158	0x3d5d9755	0.0540994
159	0x3da48c8e	0.08034621
160	0xbd843843	-0.064560436
161	0xbdf3bcf8	-0.11901277
162	0xbc99143b	-0.018686404
163	0xbe0e9a62	-0.1392608
164	0xbdb72084	-0.08941749
165	0xbd8f8180	-0.07007122
166	0xba724b3c	-0.0009242778
167	0xbe245bd3	-0.16050653
168	0xbdcd6c14	-0.1003038
169	0xbda3a28f	-0.0798999
170	0x3c8e1320	0.017343104
171	0xbe1ee651	-0.15517546
172	0xbdb09738	-0.08622593
173	0xbd651505	-0.05592825
174	0x3b4a142d	0.003083478
175	0xbe44608a	-0.19177452
176	0xbda3cc23	-0.0799792
177	0xbd994038	-0.07482952
178	0xbdf65fc1	-0.12029982
179	0xbe144f1b	-0.14483301
180	0xbdaf269b	-0.08552285
181	0xbdce7650	-0.1008116
182	0xbdd31a1e	-0.10307716
183	0xbe2e1522	-0.17000249
184	0xbd625e72	-0.05526585
185	0xbd30d349	-0.043170247
186	0xbdacdf8e	-0.08441077
187	0xbdc18dac	-0.0945085
188	0xbdbc45c9	-0.09192998
189	0xbde3ccd2	-0.11123051
190	0xbd97aeba	-0.07406373
191	0xbdb11df9	-0.08648295
192	0xbd2b75e0	-0.04186046
193	0xbdc2ce46	-0.09512
194	0x3cfcfac0	0.030881286
195	0xbc8bf178	-0.017082915
196	0xbcd0357f	-0.025416134
197	0xbda42147	-0.0801416
198	0x3d1ea274	0.038729146
199	0xbc116ba2	-0.008875759
200	0xbe1b405a	-0.15161267
201	0xbe26186b	-0.16220252
202	0xbde2372f	-0.11045682
203	0xbdf8199c	-0.121142596
204	0xbd91ee2a	-0.07125504
205	0xbd9077ab	-0.07054075
206	0xbca26559	-0.019823717
207	0xbce0ab68	-0.027425483
208	0xbc2bbd96	-0.0104822125
209	0xbd5a4fdb	-0.053298812
210	0x3d262db0	0.040570915
211	0x3b64ed00	0.0034931302
212	0xbc98a5b8	-0.018633708
213	0xbd74de1b	-0.05978213
214	0x3b9e7bbb	0.004836527
215	0xbb0f73ff	-0.0021889207
216	0xbdaeb8ba	-0.085313275
217	0xbd11215c	-0.035432205
218	0xbc3c61a5	-0.01149789
219	0x3cf36c9e	0.029714879
220	0xbc942de4	-0.018088289
221	0x3cb386ef	0.021914927
222	0x3d612c81	0.054974083
223	0x3bac75e6	0.005263078
224	0x3d9cb268	0.07651216
225	0x3da2315c	0.07919571
226	0x3d5d8ee0	0.054091334
227	0x3deec3fb	0.11658474
228	0xbcbfa23e	-0.023392793
229	0xbc83464a	-0.016024727
230	0xbd2eb3aa	-0.04265181
231	0x3d19b507	0.037526157
232	0x3cd13591	0.025538238
233	0x3d032bee	0.032024316
234	0x39400400	0.00018312037
235	0x3d3c0f8b	0.04591326
236	0x3c7e9ccc	0.015540313
237	0x3cada0bf	0.021194814
238	0x3b6d3be9	0.003619904
239	0x3d535324	0.05159296
240	0xbba5081c	-0.005036367
241	0xbdeb54bc	-0.11490771
242	0xbc9da1c4	-0.019242175
243	0xbd019180	-0.0316329
244	0xbb995b98	-0.0046801083
245	0xbe105c09	-0.14097609
246	0xbd42bf94	-0.047545984
247	0xbd90a2d6	-0.070623085
248	0xbcba69fa	-0.022755612
249	0xbde7c634	-0.11317101
250	0xbc11e4a2	-0.008904608
251	0xbd29c00b	-0.041442912
252	0xbca1ed46	-0.019766461
253	0xbd592801	-0.053016666
254	0x3c423ed6	0.011855802
255	0xbb38de62	-0.0028208722

model.2.bias f4 [128]
0	0xbcdbc597	-0.026827617
1	0x3c95a5af	0.01826748
2	0xbdb1ac3b	-0.086754285
3	0xbcdf71d0	-0.02727595
4	0xbd7ac11b	-0.061219316
5	0xbd9e0423	-0.07715633
6	0x3c73f338	0.014889531
7	0x3d66739d	0.0562626
8	0xbd0ee8bb	-0.034889918
9	0xbbf0d5e5	-0.007349717
10	0xbc15f75a	-0.0091532115
11	0xbbdf0bdf	-0.006806835
12	0xbd0b2ee7	-0.033980276
13	0x3c9542bb	0.018220296
14	0xbcb02dce	-0.021506216
15	0x3b3c80d7	0.0028763318
16	0x3da57025	0.080780305
17	0x3dcafdbe	0.09911679
18	0x3ce6fd17	0.028196855
19	0xbbd359e0	-0.006449923
20	0x3c3f0df9	0.011661046
21	0x3c2a1c6e	0.010382755
22	0x3be35160	0.006937191
23	0xbca253c0	-0.019815326
24	0x3b56a9b4	0.003275496
25	0xbbaf2cb2	-0.0053459043
26	0xbd55c497	-0.052189436
27	0x3d8c2819	0.068435855
28	0x3c83f426	0.01610763
29	0x3da0a59c	0.078440875
30	0xbd91b06b	-0.07113727
31	0xbcf1ce2e	-0.02951726
32	0xbdb8be47	-0.090206675
33	0xbda7bdb6	-0.08190481
34	0xbcac5e9c	-0.021041207
35	0xbc1cce8c	-0.009570729
36	0x3d9a4b32	0.075338736
37	0x3d189b9b	0.037257772
38	0xbdaeccf8	-0.085351884
39	0xbcb146ad	-0.021640146
40	0xbd874021	-0.066040285
41	0xbd06d986	-0.03292229
42	0xbc074b90	-0.008257762
43	0x3d341e83	0.04397441
44	0x3b9105f5	0.004425759
45	0xbd92aff8	-0.071624696
46	0xbd6c3fbe	-0.057677977
47	0x3d1348bb	0.035958033
48	0xbd3c8aae	-0.046030693
49	0xbdf1c4b6	-0.11805098
50	0xbd112dd3	-0.035444092
51	0x3c82b7f2	0.015956853
52	0xbd63abea	-0.055583872
53	0x3ccdd3fe	0.0251255
54	0x3d85ff70	0.065428615
55	0x3ca802d6	0.020509165
56	0xbd656162	-0.056001075
57	0x3c866bfe	0.016408917
58	0xbc426406	-0.011864668
59	0x3d275346	0.0408509
60	0x3cd08236	0.025452714
61	0x3d55cccd	0.052197266
62	0x3c79d1d2	0.015247779
63	0xbc4d6336	-0.012535861
64	0x3d8486a8	0.06470996
65	0xbdd4c1b4	-0.103885084
66	0x3c34443b	0.011002596
67	0x3d46d22a	0.04854027
68	0xbd20156f	-0.03908294
69	0x3cb77391	0.022393974
70	0x3b836f19	0.0040110466
71	0xbd312de2	-0.043256648
72	0xbbb5339b	-0.0055298335
73	0x3d1e02d2	0.03857691
74	0x3ceebd79	0.029143082
75	0x3ce89404	0.028390892
76	0xbc98af97	-0.018638415
77	0xbd5bd346	-0.053668283
78	0x3cbae49d	0.02281409
79	0x3d54adb4	0.05192347
80	0xbda357fb	-0.07975765
81	0xbdf47337	-0.11936038
82	0x3cc7bb1e	0.024381217
83	0x3c7cffb1	0.015441821
84	0x3d1bc282	0.038027294
85	0x3d4ff9cd	0.050775338
86	0xbd365fad	-0.044524837
87	0xbd06cae2	-0.032908328
88	0xbd459268	-0.048235327
89	0xbc493034	-0.012279559
90	0x3d96093e	0.073259816
91	0xbc7affec	-0.015319806
92	0x3dd4017b	0.10351845
93	0xbe014751	-0.12624861
94	0x3a11ff0c	0.0005569316
95	0x3d3f2fe6	0.04667654
96	0xbd252b6c	-0.040324613
97	0x3cd7d6ba	0.026347507
98	0x3d992712	0.07478155
99	0x3b89d09a	0.0042057754
100	0x3d243f33	0.040099334
101	0x3c836259	0.016038107
102	0x3d404d1f	0.04694855
103	0x3ccf57fd	0.02531051
104	0x3d24e6d8	0.040259212
105	0xbb8c1617	-0.0042750943
106	0xbd8409cb	-0.0644718
107	0xbcdebb8b	-0.027189037
108	0x3a85502e	0.001017099
109	0xbd95ad03	-0.0730839
110	0x3cad04f2	0.021120522
111	0xbce725be	-0.028216239
112	0xbd9725d1	-0.0738026
113	0xbb72ea97	-0.0037066096
114	0x3ba03848	0.0048895217
115	0xbd231fa6	-0.039825104
116	0x3d42a352	0.047519036
117	0x3d4390a2	0.047745354
118	0x3cee7fb2	0.029113624
119	0x3c64290e	0.013925804
120	0x3d159a15	0.036523897
121	0x3e287731	0.16451718
122	0x3c00d939	0.00786429
123	0x3c913bdf	0.017728744
124	0xbceb4f82	-0.028724436
125	0x3c83e63e	0.016100999
126	0xbcb1c645	-0.021700988
127	0xbe1e03c7	-0.15431128

model.3.weight f4 [128]
0	0x3f8ae6bd	1.0851666
1	0xbed37023	-0.4129649
2	0x3f23c7cd	0.63976747
3	0xbf17ab43	-0.592457
4	0xbeadf797	-0.3397796
5	0xbf1cd86d	-0.6126774
6	0xbefb300f	-0.49060103
7	0xbf237d20	-0.638628
8	0xbf2bba64	-0.67081285
9	0xbeb58365	-0.3545181
10	0xbeab3323	-0.33437452
11	0x3eb25747	0.34832212
12	0xbeb8213f	-0.35962865
13	0x3ec5004e	0.38476795
14	0xbf15a4c2	-0.58454525
15	0x3f0c5297	0.5481352
16	0x3ecd0951	0.4004617
17	0x3f119e04	0.5688174
18	0x3ef26d6f	0.47349116
19	0x3ed43bba	0.41451818
20	0xbf0f6815	-0.5601819
21	0x3f05221c	0.5200517
22	0x3ed36a79	0.4129217
23	0xbf03e29c	-0.51517653
24	0x3eb85e60	0.36009502
25	0xbf01ff71	-0.507804
26	0x3e9257b5	0.2858254
27	0xbee129d3	-0.43977222
28	0x3ec41cc2	0.3830319
29	0x3eeaf7b5	0.4589211
30	0x3ee86789	0.4539149
31	0xbea2e5bf	-0.31815907
32	0x3f067e8f	0.52536863
33	0x3ec065db	0.3757771
34	0x3ef0cd36	0.47031564
35	0x3f068c90	0.5255823
36	0xbed6b4eb	-0.41934904
37	0x3f354dd0	0.7082186
38	0xbecdd762	-0.40203387
39	0x3eef0856	0.46686047
40	0xbee840cb	-0.45361933
41	0xbee69260	-0.4503355
42	0xbeb978b8	-0.36224914
43	0x3ebcde6d	0.36888447
44	0x3f381a93	0.7191555
45	0xbf01f15a	-0.507589
46	0x3ed391bb	0.4132212
47	0xbefb9739	-0.4913881
48	0x3eb63b0e	0.3559193
49	0xbf145305	-0.5793918
50	0x3ea2db1f	0.318078
51	0x3ead582a	0.33856326
52	0xbee3627a	-0.4441107
53	0xbec7975a	-0.3898266
54	0xbe935142	-0.28772932
55	0xbef35317	-0.4752433
56	0xbee1b346	-0.44082087
57	0xbed190e5	-0.40930858
58	0xbea6f8d0	-0.32611704
59	0x3f387a4a	0.720616
60	0xbed7fd69	-0.42185524
61	0x3ee399f3	0.4445339
62	0x3f26c8f6	0.6515039
63	0x3ee5745c	0.44815338
64	0xbeaabe14	-0.33348143
65	0xbee61725	-0.44939533
66	0x3ecb0d1f	0.39658448
67	0x3f2eabba	0.68230784
68	0x3eaac74f	0.33355185
69	0xbf51aed2	-0.8190738
70	0x3eeadb64	0.45870507
71	0xbee832b6	-0.4535119
72	0x3efb161c	0.49040306
73	0x3eb1b32b	0.34707007
74	0xbede9e15	-0.43479982
75	0xbf0239ce	-0.5086945
76	0x3f042b7a	0.5162884
77	0xbf253e00	-0.6454773
78	0xbee5eabf	-0.4490566
79	0x3f36ad5e	0.7135829
80	0x3ead766e	0.33879417
81	0xbf124cc9	-0.57148415
82	0xbef4c21e	-0.4780435
83	0x3eaa1641	0.33220103
84	0x3ef89981	0.48554614
85	0xbeda72e7	-0.4266579
86	0xbf1c44a1	-0.6104222
87	0x3eae9874	0.34100688
88	0x3ef14d0d	0.47129098
89	0x3f1acbc1	0.60467154
90	0xbeba62ed	-0.364036
91	0xbee75627	-0.45182917
92	0x3f0dee36	0.55441606
93	0xbeb4677f	-0.3523521
94	0x3eddd724	0.43328202
95	0x3eb93f06	0.36180896
96	0xbeac7d4a	-0.33689338
97	0xbed68bff	-0.41903684
98	0x3ee04cf9	0.43808725
99	0xbed5c302	-0.41750342
100	0x3ea3b7d8	0.319762
101	0x3eee36cd	0.46526185
102	0x3eb422d1	0.35182813
103	0x3eca7943	0.3954564
104	0x3ee3a6db	0.44463238
105	0xbebf6434	-0.37381136
106	0xbef554e0	-0.47916317
107	0xbed40048	-0.41406465
108	0x3ea4ac96	0.32162923
109	0xbedde567	-0.43339083
110	0x3eb4ab92	0.35287148
111	0x3ef89ccb	0.48557124
112	0x3ede0454	0.43362677
113	0xbf1e8299	-0.61918026
114	0xbee97ba4	-0.45602143
115	0x3ef9822c	0.48732126
116	0xbeb92dde	-0.36167806
117	0x3f1719f0	0.5902395
118	0xbee7716d	-0.45203725
119	0xbed8204c	-0.4221214
120	0x3eab69f3	0.3347927
121	0x3f01152a	0.5042292
122	0xbe8c80d8	-0.2744205
123	0xbebcf145	-0.36902824
124	0x3ee003eb	0.4375299
125	0xbeedce3a	-0.464464
126	0x3edc85ed	0.43070927
127	0x3f461e3a	0.7738987

model.3.bias f4 [128]
0	0xbea636b1	-0.324636
1	0x3d92aaff	0.07161521
2	0xbe043372	-0.1291025
3	0xbbfb0656	-0.0076606674
4	0xbe65d958	-0.22446191
5	0xbe62ceb6	-0.22149166
6	0x3e0fa774	0.14028722
7	0x3d733094	0.0593725
8	0xbe0cbdd5	-0.1374429
9	0xbe6f8c57	-0.23393379
10	0xbddbfc84	-0.10741523
11	0x3d84473a	0.06458898
12	0xbe7c315e	-0.24628207
13	0xbdc20987	-0.094744734
14	0xbddab664	-0.106793195
15	0x3d9e1751	0.07719291
16	0xbd9fbf7b	-0.07800194
17	0xbab7144f	-0.0013967844
18	0x3d36637f	0.04452848
19	0xbc6cfbcc	-0.01446433
20	0x3dc89f4f	0.09796011
21	0xbe814ca4	-0.25253785
22	0x3da41d5d	0.08013413
23	0xbe224457	-0.15846382
24	0xbdcddd81	-0.10052014
25	0xbe1dbb8e	-0.15403578
26	0xbdc22ff4	-0.094818026
27	0xbe608440	-0.2192545
28	0x3dfbf26e	0.12302099
29	0x3d0b4f64	0.03401126
30	0xbe894092	-0.26807076
31	0xbdc68f3f	-0.09695291
32	0xbe0ec072	-0.139406
33	0xbd053bf7	-0.03252789
34	0x3e2421dc	0.16028541
35	0xbe5ca0bb	-0.21545689
36	0xbdfbcf98	-0.12295455
37	0x3cd2902a	0.025703508
38	0xbe0227eb	-0.1271054
39	0xbe3a8cc2	-0.18217757
40	0x3d2b228a	0.041780986
41	0xbd2d5d94	-0.04232557
42	0xbddeee64	-0.10885313
43	0xbdb61d63	-0.08892324
44	0x3d33cb87	0.04389527
45	0x3cecfb01	0.028928282
46	0x3d2f3717	0.042777147
47	0xbe2234d8	-0.15840471
48	0xbe6f8f10	-0.23394418
49	0xbe3b1eb9	-0.18273439
50	0x3d17f8b6	0.037102424
51	0xbd87a14b	-0.06622561
52	0xbe2d3c9a	-0.16917649
53	0xbdec6460	-0.115425825
54	0xbd7769b7	-0.060403552
55	0xbddc84ea	-0.10767539
56	0xbcb23585	-0.021754036
57	0xbdb090ad	-0.08621345
58	0xbe101a23	-0.1407247
59	0xbe4a8af6	-0.19779572
60	0x3d20ae95	0.039228994
61	0x3cebbc2a	0.028776247
62	0x3e82b4fa	0.255287
63	0x3d27f942	0.041009195
64	0xbd52d4b0	-0.051472366
65	0xbdd39815	-0.10331742
66	0x3e122f32	0.14275816
67	0x3d58412f	0.05279654
68	0xbe2fef82	-0.17181209
69	0x3d8a1ea2	0.06744124
70	0x3da47f0b	0.08032044
71	0x3d7f17d8	0.0622786
72	0x3d46bb7f	0.048518654
73	0x3bc4008f	0.005981512
74	0x3e190831	0.14944531
75	0xbe2b8c37	-0.16752706
76	0xbdd2fa44	-0.10301641
77	0x3df1b51d	0.11802123
78	0x3dbc51b1	0.09195269
79	0x3de2e9aa	0.11079724
80	0xbcaa9659	-0.020823644
81	0xbe0c047c	-0.13673586
82	0xbe1bc3a7	-0.15211354
83	0xbdce1c66	-0.1006401
84	0xbd814fdd	-0.06314061
85	0x3e0fe276	0.14051232
86	0xbdd408f1	-0.10353268
87	0xbe1460c5	-0.1449004
88	0xbd83ac46	-0.06429343
89	0xbe4b90b1	-0.19879414
90	0x3c31a0e0	0.010841578
91	0xbd8505ae	-0.06495224
92	0xbe3a6c7a	-0.18205443
93	0x3d853d65	0.06505851
94	0x3d11ba82	0.03557826
95	0xbde68056	-0.11254947
96	0x3be0cbcb	0.0068602315
97	0xbdb62442	-0.088936344
98	0xbd249aec	-0.040186808
99	0xbe30f925	-0.17282541
100	0xbdac139b	-0.08402177
101	0x3e1b80ea	0.15185896
102	0xbdf09fd1	-0.117492326
103	0xbc41bab0	-0.011824295
104	0x3d892b26	0.06697683
105	0x3e252517	0.1612743
106	0x3de3093a	0.11085744
107	0x3e0f8a53	0.1401761
108	0xbda53798	-0.08067244
109	0x3e158544	0.14601618
110	0xbe10d09d	-0.1414208
111	0xbe1de3a6	-0.15418872
112	0x3e20a6dd	0.15688653
113	0xbd8678de	-0.06566022
114	0x3e116e42	0.14202216
115	0xbe4ab06f	-0.19793867
116	0xbd0b1494	-0.03395517
117	0x3d0c1b13	0.034205507
118	0x3d591845	0.05300166
119	0xbcc82399	-0.024431037
120	0xbd2bc69d	-0.04193746
121	0x3c86b4e6	0.016443681
122	0xbe3ae0f7	-0.1824988
123	0x3d5749ab	0.05256049
124	0x3dc017d9	0.093795486
125	0x3e32359c	0.17403263
126	0x3db0e78b	0.08637913
127	0xbdacb599	-0.084330745

model.3.running_mean f4 [128]
0	0xbdf44391	-0.1192695
1	0xbb7deab4	-0.003874463
2	0x3e9b5f0c	0.30345953
3	0x3e8d6a78	0.27620292
4	0xbf118e75	-0.56858
5	0x3f146ed7	0.5798163
6	0x3de389a3	0.111102365
7	0xbd4431d6	-0.04789909
8	0x3e71524e	0.23566553
9	0xbf2dad4b	-0.6784255
10	0xbf23d2b2	-0.6399337
11	0xbf8281fd	-1.0195919
12	0xbf6114ed	-0.87922555
13	0xbf0f8320	-0.56059456
14	0x3cc721e8	0.02430816
15	0xbeef1611	-0.46696523
16	0x3ebeed20	0.37290287
17	0x3e97f4c0	0.29678917
18	0x3efc54cf	0.49283454
19	0x3edd11de	0.43177694
20	0xbb65eaa6	-0.0035082488
21	0x3e433a1f	0.1906514
22	0x3e83716e	0.25672477
23	0xbe92fbd6	-0.2870776
24	0x3ea48643	0.32133684
25	0xbd80c11f	-0.06286835
26	0xbef027cd	-0.46905366
27	0xbdfe817e	-0.124270424
28	0xbe8fa336	-0.28054208
29	0x3e261c9a	0.16221848
30	0x3f1e7f43	0.61912936
31	0xbeb0191f	-0.34394166
32	0xbd85f2a8	-0.06540424
33	0xbf39c5b2	-0.72567284
34	0xbe93958e	-0.2882504
35	0x3dd10c96	0.10207479
36	0xbf091595	-0.53548557
37	0x3f416894	0.755502
38	0xbdbf3787	-0.09336763
39	0x3e5a0170	0.21289611
40	0xbeab133d	-0.33413115
41	0x3e611820	0.21981859
42	0xbeb419db	-0.35175976
43	0x3ec6f705	0.38860336
44	0x3e876b2d	0.26448956
45	0xbdb76f3f	-0.089567654
46	0xbf05d23c	-0.5227392
47	0xbcd559bf	-0.02604377
48	0x3ec0c2b5	0.3764855
49	0xbda52b8f	-0.08064949
50	0xbf1762e8	-0.59135294
51	0xbf227eb4	-0.63474584
52	0xbe1205f7	-0.14260088
53	0xbebf2b06	-0.37337512
54	0x3f27d0c2	0.65552914
55	0xbc64978b	-0.013952146
56	0x3f39b55b	0.7254235
57	0xbe871cf8	-0.2638929
58	0xbef4924d	-0.4776787
59	0xbdbb66d5	-0.09150473
60	0xbf67d431	-0.90558153
61	0x3e208584	0.15675932
62	0xbcd7202b	-0.026260456
63	0x3b58d193	0.00330839
64	0x3f2248f5	0.63392574
65	0xbf5e724b	-0.8689315
66	0xbf49c121	-0.78810316
67	0x3e7b9ee8	0.24572337
68	0xbee06dc0	-0.43833733
69	0xbe97d293	-0.29652843
70	0x3ebda49d	0.37039652
71	0xbce94e6c	-0.028479777
72	0x3c4e1c24	0.012579951
73	0xbd714243	-0.058901083
74	0x3f0d3858	0.551641
75	0xbc8b2435	-0.016985038
76	0x3eabd231	0.335588
77	0xbe358972	-0.17728212
78	0xbf001f3a	-0.5004765
79	0xbd672adc	-0.05643736
80	0xbed53830	-0.4164443
81	0xbe38540d	-0.18000813
82	0xbeb5dfe4	-0.35522377
83	0x3dff9071	0.12478722
84	0x3e798de3	0.24370532
85	0x3f4781c2	0.7793237
86	0x3e86fb2b	0.263635
87	0x3db16eb5	0.08663694
88	0xbd888282	-0.066655174
89	0xbe4d3e0e	-0.20043203
90	0x3f20c3bb	0.6279866
91	0x3f235738	0.6380496
92	0x3e371b5f	0.17881535
93	0xbdbd9a5c	-0.09257957
94	0x3d64cee2	0.05586136
95	0x3ed2dfa1	0.4118624
96	0x3ef7cd5b	0.4839886
97	0xbf3d01f6	-0.7383112
98	0x3e5e2140	0.21692371
99	0xbec64754	-0.38726294
100	0x3e41ac96	0.18913493
101	0xbe6c2f87	-0.23065005
102	0xbeb6bea5	-0.35692325
103	0xbdb47090	-0.08810532
104	0xbbb78ace	-0.0056012636
105	0x3f335532	0.7005187
106	0xbec5f4ed	-0.38663426
107	0x3e6d019a	0.23145142
108	0x3e157067	0.1459366
109	0x3ec8fa05	0.3925325
110	0x3ee779c6	0.45210093
111	0x3ea3f006	0.3201906
112	0xbf0d7ba0	-0.5526676
113	0x3dccd77e	0.100020394
114	0xbebce4e5	-0.36893383
115	0x3e2d3334	0.16914064
116	0x3f0f6c6b	0.5602481
117	0x3ea91a82	0.33028036
118	0xbe075298	-0.13215101
119	0xbe456be5	-0.1927944
120	0xbe1d7e8f	-0.1538031
121	0x3e2a8643	0.1665278
122	0xbe4c64b4	-0.1996029
123	0xbef0ee58	-0.47056842
124	0x3d0f6a72	0.035013624
125	0x3ef990f6	0.4874341
126	0x3ee5eaa9	0.44905594
127	0xbea42581	-0.32059863

model.3.running_var f4 [128]
0	0x3c5d5643	0.013509336
1	0x3d6649af	0.056222614
2	0x3d458473	0.048222017
3	0x3ba60227	0.0050661745
4	0x3cc4f0a7	0.024040533
5	0x3ca3157e	0.01990771
6	0x3d1f1c73	0.03884549
7	0x3cdb2225	0.02674968
8	0x3c51cdfc	0.012805458
9	0x3d1d1266	0.038347624
10	0x3d05e1f3	0.032686185
11	0x3d6b9545	0.0575154
12	0x3d2cd9ce	0.042199902
13	0x3d6faab3	0.0585124
14	0x3c4dc359	0.012558782
15	0x3d97cf88	0.0741263
16	0x3c803210	0.015648872
17	0x3c578b21	0.0131557295
18	0x3d3235ee	0.043508463
19	0x3d26b317	0.040698137
20	0x3d5335bb	0.051564913
21	0x3cf50e6e	0.029914107
22	0x3db8c598	0.09022063
23	0x3ce53191	0.027977737
24	0x3c92e312	0.017930541
25	0x3d03e1fe	0.032197945
26	0x3d2f7c03	0.042842876
27	0x3ca01634	0.019541837
28	0x3d311d16	0.04324063
29	0x3c9c2cce	0.019064333
30	0x3d73ce7e	0.0595231
31	0x3c848f34	0.016181566
32	0x3d270a8b	0.04078154
33	0x3d625b37	0.05526277
34	0x3d04bd5f	0.03240716
35	0x3c8d38da	0.017239023
36	0x3cb845c1	0.022494199
37	0x3edf0d3b	0.43564782
38	0x3cc0fe08	0.023558632
39	0x3d1e3a1b	0.038629632
40	0x3d699ed2	0.05703623
41	0x3da861f2	0.082218066
42	0x3ca51f6d	0.020156587
43	0x3d2c2158	0.042023987
44	0x3ca93a5b	0.020657709
45	0x3d2c2631	0.04202861
46	0x3d8818f9	0.06645388
47	0x3c9b1752	0.018932018
48	0x3c6766fe	0.014123676
49	0x3d4521b9	0.048127864
50	0x3d4473c3	0.04796196
51	0x3d6b8e1b	0.05750857
52	0x3cf37407	0.029718412
53	0x3ca20765	0.019778917
54	0x3d70fb26	0.058833264
55	0x3c717640	0.014737666
56	0x3d534d3b	0.051587325
57	0x3c25660e	0.0100951325
58	0x3cbe317d	0.023216957
59	0x3d2ffed4	0.042967632
60	0x3d916eb0	0.0710119
61	0x3cb27121	0.02178246
62	0x3d292d91	0.04130322
63	0x3d255fa8	0.040374428
64	0x3ccec283	0.025239235
65	0x3c4c0678	0.012452714
66	0x3d16fcfd	0.036862362
67	0x3cceda41	0.025250556
68	0x3e150e27	0.1455618
69	0x3d24a2bc	0.040194258
70	0x3dce9042	0.10086109
71	0x3d7b021b	0.061281305
72	0x3d0bed39	0.03416178
73	0x3cbbf7a9	0.022945242
74	0x3cfa2639	0.030535804
75	0x3d18a0a5	0.037262578
76	0x3ccc1379	0.024911629
77	0x3ca2489b	0.019810012
78	0x3d5759c6	0.05257585
79	0x3d424343	0.047427427
80	0x3cc1b6bf	0.02364671
81	0x3d3472a6	0.04405465
82	0x3d3503a5	0.04419293
83	0x3c942721	0.018085064
84	0x3c4a5bc0	0.0123509765
85	0x3da07f6c	0.07836804
86	0x3d60fffe	0.054931633
87	0x3cffd8bd	0.031231279
88	0x3d634d44	0.055493608
89	0x3dd7ad53	0.10531106
90	0x3cd6c944	0.026219018
91	0x3cb03fa1	0.021514716
92	0x3d8bd1ba	0.068271115
93	0x3d548323	0.051882874
94	0x3d324b9f	0.04352915
95	0x3c0b976a	0.008519987
96	0x3d5bb42c	0.053638622
97	0x3c9d6d0e	0.01921704
98	0x3c9f9469	0.019479947
99	0x3d1da070	0.038483083
100	0x3ca59a11	0.020215066
101	0x3d0b6622	0.03403295
102	0x3d509cf6	0.05093094
103	0x3c88e4e3	0.016710704
104	0x3d0cde5f	0.034391757
105	0x3d14c6c5	0.036322374
106	0x3cf05f09	0.029342191
107	0x3d3631b3	0.04448099
108	0x3cdfcc64	0.02731914
109	0x3d155b19	0.03646383
110	0x3cce88eb	0.025211772
111	0x3d3dcb29	0.046336327
112	0x3cfaf2a2	0.030633274
113	0x3d84d152	0.06485237
114	0x3d970a02	0.07374956
115	0x3d0ff010	0.03514105
116	0x3d08b312	0.0333739
117	0x3d8946a1	0.067029245
118	0x3d8db0c8	0.06918484
119	0x3dadbb13	0.08482947
120	0x3d202028	0.039093167
121	0x3d054dc6	0.032544874
122	0x3d244a01	0.040109638
123	0x3d64966b	0.055807512
124	0x3d4e4dce	0.05036717
125	0x3cc4c511	0.02401975
126	0x3d8e51c2	0.06949188
127	0x3da4dcc3	0.080499195

model.5.weight f4 [1, 128, 4, 4]
0	0x3f2c7a93	0.67374533
1	0x3f1229e4	0.5709517
2	0x3ed02638	0.4065416
3	0x3f11d42d	0.5696438
4	0x3f2c83c0	0.67388535
5	0x3f1b3a6a	0.6063601
6	0x3eeb2cfe	0.45932764
7	0x3f1cf8aa	0.6131693
8	0xbed9c7b8	-0.42535186
9	0xbeee5870	-0.46551847
10	0xbf0c8bae	-0.54900634
11	0xbefa1c39	-0.48849657
12	0xbe18e89a	-0.1493248
13	0xbe2ff6db	-0.17184012
14	0xbea23074	-0.31677592
15	0xbe6dbfb3	-0.23217659
16	0x3ed8f5a1	0.423749
17	0x3ec94ee7	0.3931801
18	0x3db71723	0.0893996
19	0x3e081144	0.13287836
20	0x3eda1b46	0.42598933
21	0x3ecd4e74	0.40098917
22	0x3dd90628	0.10596877
23	0x3e01df48	0.12682831
24	0x3ede4344	0.43410695
25	0x3ebd01e2	0.369155
26	0x3e0836ae	0.13302109
27	0x3dc3d535	0.095621504
28	0x3eefafb7	0.46813747
29	0x3ed3dc6f	0.41379115
30	0x3dc066b7	0.09394591
31	0x3e0280d2	0.12744454
32	0xbf18b4da	-0.5965096
33	0xbf2485ed	-0.64266855
34	0xbf4c73ea	-0.7986437
35	0xbf40ceae	-0.7531537
36	0xbf2a1030	-0.6643095
37	0xbf294634	-0.66122746
38	0xbf4f0b28	-0.808764
39	0xbf5147c0	-0.81750107
40	0xbea16eb8	-0.31529784
41	0xbeabf722	-0.33586985
42	0xbf08f8b1	-0.5350447
43	0xbef6d18d	-0.4820675
44	0xbe9d0bb0	-0.3067298
45	0xbea93ef2	-0.33055836
46	0xbf04bcd9	-0.5185066
47	0xbf0c9ea2	-0.54929554
48	0x3ee7d732	0.45281368
49	0x3ef3ad71	0.47593263
50	0x3ef748bb	0.48297676
51	0x3f00253d	0.5005682
52	0x3edb3908	0.4281695
53	0x3ecccb34	0.39998782
54	0x3ef06e79	0.46959284
55	0x3ee24723	0.44194898
56	0x3efd40a5	0.49463382
57	0x3ef02e5a	0.46910363
58	0x3efb1ba1	0.49044517
59	0x3efadebe	0.48998064
60	0x3f01e937	0.5074648
61	0x3f0790a9	0.5295511
62	0x3efd453f	0.49466893
63	0x3f08c38b	0.53423375
64	0x3eca747e	0.39542
65	0x3eb62bb1	0.3558021
66	0x3ec59363	0.3858901
67	0x3ee59970	0.44843626
68	0x3ece6fe4	0.4031974
69	0x3eb7ea89	0.35921124
70	0x3ed22f49	0.410517
71	0x3ed19c2c	0.40939462
72	0x3edc19ec	0.42988527
73	0x3ecf6ae2	0.40511233
74	0x3ee2bc7f	0.44284436
75	0x3ee3f8fc	0.44525898
76	0x3ed8d294	0.42348158
77	0x3ed96f85	0.42467895
78	0x3ef1f27e	0.4725532
79	0x3eed8fa1	0.46398643
80	0xbf6891bf	-0.9084739
81	0xbf78800b	-0.9707038
82	0xbf5a6bee	-0.8532094
83	0xbf585c4a	-0.8451582
84	0xbf7666bc	-0.9625051
85	0xbf81c547	-1.0138329
86	0xbf6b624a	-0.9194685
87	0xbf5ebd3e	-0.8700751
88	0xbf8843e9	-1.0645725
89	0xbf8a5856	-1.0808208
90	0xbf796da2	-0.9743291
91	0xbf6a241e	-0.9146136
92	0xbf82f5cf	-1.0231265
93	0xbf88b0f8	-1.0679007
94	0xbf6fb645	-0.93637496
95	0xbf6b63bb	-0.9194905
96	0xbf07b55e	-0.5301112
97	0xbf0c5c59	-0.5482841
98	0xbeec3d7b	-0.46140656
99	0xbeeb1603	-0.4591523
100	0xbf089f11	-0.53367716
101	0xbf05606f	-0.5210027
102	0xbef66536	-0.48124093
103	0xbee06718	-0.43828654
104	0xbe3d34ec	-0.1847722
105	0xbe3eb7a9	-0.18624748
106	0xbe148556	-0.14503989
107	0xbe3593d9	-0.1773218
108	0xbe93c93a	-0.2886446
109	0xbe5920c1	-0.21203901
110	0xbe8086bf	-0.25102803
111	0xbe721cb5	-0.23643763
112	0xbf194205	-0.5986636
113	0xbf251854	-0.64490247
114	0xbc972a4e	-0.01845279
115	0xbe5fe7aa	-0.21865717
116	0xbf24d225	-0.64383155
117	0xbf229742	-0.6351205
118	0xbc81b76b	-0.01583453
119	0xbe73c92a	-0.23807207
120	0xbf3d245d	-0.7388361
121	0xbf445d17	-0.76704544
122	0xbdbe315b	-0.092867576
123	0xbea6835a	-0.32522088
124	0xbf2fc0e6	-0.68653715
125	0xbf373d34	-0.71577764
126	0xbda5cb34	-0.080953985
127	0xbe940af5	-0.2891461
128	0xbf340fd9	-0.7033668
129	0xbf2e198b	-0.68007725
130	0xbf2ac18a	-0.6670157
131	0xbf2dfc40	-0.6796303
132	0xbf2c8949	-0.6739698
133	0xbf33db22	-0.70256245
134	0xbf2205ec	-0.63290286
135	0xbf30b45a	-0.69025195
136	0xbf3ad670	-0.72983456
137	0xbf308559	-0.6895347
138	0xbf2668e9	-0.6500383
139	0xbf2de7e6	-0.67931974
140	0xbf2f52d7	-0.6848578
141	0xbf2e3f22	-0.68065083
142	0xbf324e3f	-0.69650644
143	0xbf2e8c9f	-0.6818332
144	0x3ed05c54	0.4069544
145	0x3edb8245	0.42872825
146	0x3ec59ee0	0.38597775
147	0x3eda0f23	0.42589673
148	0x3eea0445	0.45706382
149	0x3ed955d7	0.42448303
150	0x3ebea3fa	0.3723448
151	0x3ecff137	0.4061372
152	0x3eefabc8	0.46810746
153	0x3ef01053	0.46887454
154	0x3ed439f2	0.4145046
155	0x3ed8d548	0.4235022
156	0x3ef08fb6	0.46984643
157	0x3eee0414	0.46487486
158	0x3ee83f26	0.45360678
159	0x3ed071bb	0.4071177
160	0x3ea1f34a	0.31630927
161	0x3e93d630	0.2887435
162	0x3eb4de31	0.3532577
163	0x3ecbaf4a	0.39782172
164	0x3e9b7bf3	0.30368003
165	0x3e663d5a	0.22484341
166	0x3ea10242	0.31447035
167	0x3eb92b61	0.36165908
168	0x3eae966f	0.34099147
169	0x3ea33571	0.3187671
170	0x3ec3d78f	0.38250396
171	0x3ed0d563	0.407878
172	0x3ed04aa3	0.40681943
173	0x3eadab02	0.3391953
174	0x3ed34add	0.41268054
175	0x3eda27b9	0.4260843
176	0x3ec99cd7	0.39377472
177	0x3e8e3f6a	0.27782756
178	0x3e9375c4	0.28800786
179	0x3ede4286	0.43410128
180	0x3ead4798	0.33843684
181	0x3e864b7a	0.2622946
182	0x3e7f12dd	0.2490954
183	0x3ec91eb8	0.3928125
184	0x3ebc1708	0.3673632
185	0x3e503226	0.2033163
186	0x3e635657	0.22200905
187	0x3eaf6189	0.342541
188	0x3ecc56fa	0.39910108
189	0x3e85e8f8	0.26154304
190	0x3e81269b	0.25224766
191	0x3ecd8abd	0.4014491
192	0x3ee50fa8	0.44738507
193	0x3ec18a46	0.37800807
194	0x3ebbdacf	0.36690375
195	0x3ec97da8	0.3935368
196	0x3ed2daf2	0.41182667
197	0x3ec7576d	0.38933888
198	0x3eafc9b5	0.34333578
199	0x3ec6708c	0.3875774
200	0x3f01a469	0.50641495
201	0x3edca08c	0.43091238
202	0x3ebd3e55	0.36961618
203	0x3ed45933	0.41474304
204	0x3eec0833	0.46100006
205	0x3ec3f490	0.38272524
206	0x3ec81544	0.39078724
207	0x3ed1c678	0.40971732
208	0x3ed04bde	0.40682882
209	0x3edb38d4	0.42816794
210	0x3ecc4684	0.3989755
211	0x3ed61e6c	0.41820085
212	0x3ed05af6	0.40694398
213	0x3ef6bcc8	0.48190904
214	0x3edb7741	0.4286442
215	0x3ee24655	0.44194284
216	0x3ed41d43	0.41428575
217	0x3efb0665	0.49028316
218	0x3ef2ee03	0.47447214
219	0x3edb2879	0.42804316
220	0x3ee85437	0.4537675
221	0x3eeb95f0	0.4601283
222	0x3ee46add	0.4461278
223	0x3edf5dfd	0.43626395
224	0xbf129f1f	-0.5727405
225	0xbf1319c7	-0.5746121
226	0xbf1a732b	-0.6033198
227	0xbf227511	-0.6345988
228	0xbf10ea27	-0.5660729
229	0xbf08c786	-0.5342945
230	0xbf1401be	-0.5781516
231	0xbf21cf4c	-0.63206935
232	0xbf182774	-0.594352
233	0xbf19b79a	-0.6004578
234	0xbf1ae189	-0.6050039
235	0xbf337364	-0.7009795
236	0xbf2155ca	-0.6302153
237	0xbf195c5b	-0.5990655
238	0xbf2ad589	-0.6673208
239	0xbf2f2cd7	-0.68427795
240	0xbe74e0d8	-0.23913896
241	0xbe2b742c	-0.16743535
242	0xbf1581fe	-0.5840148
243	0xbf112453	-0.5669605
244	0xbe949ae8	-0.29024434
245	0xbe339b1a	-0.17539635
246	0xbf1dbb28	-0.616137
247	0xbf1bbc80	-0.60834503
248	0xbe87ebb2	-0.2654701
249	0xbe070f33	-0.13189392
250	0xbf1ade4a	-0.60495436
251	0xbf0ccb8d	-0.54998094
252	0xbe7a1e99	-0.24425735
253	0xbe011587	-0.12605868
254	0xbf116db2	-0.56808007
255	0xbf04aea1	-0.5182896
